model/keypoint_classifier/keypoint_classifier.tflite (tflite, 6452 bytes, 6 tensors)

arith.constant f4 [2, 10]
000000 92 40 b1 3e 72 89 55 3f 67 c9 4e bf a8 ec 70 bf
       0.34619576 0.8341285 -0.80776066 -0.9411111
000010 47 b9 dd 3e a9 24 6b 3e 53 7f 22 3e 5e a2 89 bf
       0.43305418 0.22963203 0.15868883 -1.0752676
000020 74 8f 65 be 8d 4f fb 3d 1d bd 0a bf 66 74 59 3d
       -0.22418004 0.122710325 -0.54194814 0.05308952
000030 af cf 1b 3f 23 f8 6f 3f c0 74 45 bf e1 c5 51 bf
       0.60863775 0.93738 -0.7713127 -0.81942564
000040 70 20 16 bf 08 f7 48 bc be f5 e7 3e 58 91 4a 3f
       -0.58643246 -0.012265928 0.45304674 0.79128027

arith.constant1 f4 [10, 20]
000000 40 40 90 bc a9 11 3d 3d bc 3a ac 3d 93 8c 7a bd
       -0.017608762 0.04615942 0.0840964 -0.06116922
000010 9d 0b 10 3f 9b 96 10 3f ec 0a 13 3c 6a 0c 76 3a
       0.5626772 0.56479806 0.008974772 0.0009386005
000020 26 cb 96 3d e5 b7 8a be d0 79 e5 3c 39 f9 06 be
       0.07362966 -0.27093425 0.028012186 -0.13181008
000030 39 fb 1e be 47 60 e9 3e d4 e6 ae 3e 2e 37 94 3e
       -0.15525521 0.45581266 0.34160483 0.2894835
000040 81 2f 30 3f 9f 25 0e 3f f9 e9 09 3f b6 d6 06 be
       0.68822485 0.55526155 0.5387264 -0.13167843
000050 8f e6 33 be ec ce 68 3e ee 65 5d 3f 14 e9 57 be
       -0.1756842 0.22735184 0.8648366 -0.21085006
000060 45 2f ca 3c 4f 21 f4 3e 95 a4 02 3d e2 09 64 be
       0.024680743 0.47681662 0.03189524 -0.22269395
000070 53 c5 f1 3e 1e 4b 8b be 89 63 0b 3f 33 9a 76 bd
       0.4722086 -0.27205747 0.54448754 -0.06020565
000080 6b 06 21 3e 99 c9 62 3f 58 5f f4 3b cb c1 cb 3e
       0.15725105 0.88588864 0.007457655 0.3979629
000090 a7 37 b2 bd ce 9e 39 3f 54 70 9e 3e f1 bf 26 3d
       -0.08702021 0.7250794 0.30945075 0.040710393
0000a0 a7 da e3 3d 87 54 df 3e fd ae d9 be cf 02 d6 3e
       0.11125689 0.43619177 -0.42516318 0.41799018
0000b0 49 52 17 bf 3e 01 1a bf 47 60 b3 3e 00 66 0a 3f
       -0.5910993 -0.60158145 0.3503439 0.5406189
0000c0 f0 c1 01 bf 09 c7 e7 3e d2 a4 f5 be 9f 29 fe 3c
       -0.5068655 0.4526904 -0.4797731 0.031025706
0000d0 45 83 a7 3e 7e 6e e4 be 83 f9 7b 3e 92 86 0f bf
       0.32717338 -0.4461555 0.246069 -0.56064713
0000e0 16 7b 98 be 0a 22 bd be 3a 0c ed be f9 19 00 3e
       -0.29781407 -0.36940032 -0.4629839 0.12509908
0000f0 40 7e 04 3f 92 71 19 bf 1b ef 4b be 34 7c 23 3e
       0.5175514 -0.5993892 -0.1991543 0.15965348
000100 b6 b6 1c 3c 6f 47 8b be 5e ac 15 bf 8e c8 e2 3e
       0.009565046 -0.27202937 -0.58466136 0.44293636
000110 a3 c0 25 bc 78 62 5c 3d ee bb c9 be 71 f3 ab 3e
       -0.010116729 0.053804845 -0.3940119 0.3358417
000120 0d 18 97 3e 3e f1 21 3e c2 36 8b 3e 9b 26 1c 3e
       0.29510537 0.15814683 0.27190214 0.15249102
000130 a8 82 02 bf af a6 3c be 26 3c 01 3d 21 0b 8b 3e
       -0.50980616 -0.1842296 0.031551503 0.27156928
000140 be d4 a5 3e 14 00 03 bc 43 61 81 be a5 ac 81 be
       0.32388872 -0.007995624 -0.25269517 -0.2532703
000150 be ee 8c be 61 b0 3a 3c 6e f9 01 bf 50 3e 48 3e
       -0.27525896 0.011394591 -0.50771224 0.1955502
000160 fb 98 a4 be 36 73 bb be c5 8b a3 bd 19 07 4c 3e
       -0.32147965 -0.36611336 -0.07985643 0.19924583
000170 99 a3 6e 3e 47 bf 50 be 0a 0a 3d bd 33 1f 81 3e
       0.23304595 -0.20385467 -0.046152152 0.25219116
000180 c8 a6 1e 3f e5 87 1f 3f 87 95 f2 be 95 dd 35 be
       0.6197324 0.62316734 -0.47379705 -0.17760308
000190 3b c3 f1 3d a0 b9 dc 3e 6d b7 46 3f 41 b1 e6 bd
       0.118048154 0.4311037 0.77623636 -0.11264277
0001a0 8b 67 b2 3d b8 04 d9 3e c4 c0 cd 3c 4b bb ac be
       0.087111555 0.42386413 0.025116332 -0.33736643
0001b0 e4 ea 1f 3f bb f0 b4 be 32 bc da 3e 73 a3 c9 bd
       0.6246779 -0.35339913 0.42721707 -0.098456286
0001c0 a7 db 68 be fe eb 0a 3f e7 34 dd 3e 47 da 2e 3e
       -0.2274004 0.54266346 0.43204424 0.17075454
0001d0 ac 4f e0 3c e1 74 18 3f d6 db e5 3e db fa b9 be
       0.02738174 0.59553343 0.44894284 -0.363242
0001e0 60 12 20 bd c0 5a 2d 3e b8 ea 24 3f 77 45 86 be
       -0.039080024 0.1692915 0.6442065 -0.26224872
0001f0 7a 18 3b 3f ae 48 c5 3e 04 21 58 3e f1 6d d9 be
       0.73084223 0.38532013 0.21106344 -0.4246669
000200 d9 e3 e5 3e 99 89 ac 3d 74 6f 4e 3e 0f 0e 6b 3d
       0.44900396 0.08424682 0.20159703 0.057386454
000210 7a 45 ad be 5b a0 2f 3f 22 ab 2b 3e 55 eb 47 3f
       -0.3384207 0.6860406 0.167645 0.78093463
000220 db 9d 4a 3e fb 23 75 3e 5e 07 14 3e 92 86 7e be
       0.1978678 0.23939507 0.14455935 -0.24856022
000230 16 f9 78 3e 4a e3 4f 3e cc 01 ab be 11 58 e4 3e
       0.24313769 0.20301548 -0.33399808 0.4459844
000240 46 2d 8c be fd 5e d8 be 39 b7 4e be f7 55 c9 be
       -0.2737829 -0.4225997 -0.20187081 -0.39323398
000250 ed 81 8b be b3 85 bf 3e dd 81 a9 be 4f ae c2 3e
       -0.27247563 0.37406692 -0.3310689 0.38023612
000260 e5 41 e8 3e 97 6f e5 be 94 9f 22 3d 85 7b 23 bf
       0.45362774 -0.448117 0.039702967 -0.6386035
000270 d0 63 93 be c5 99 5a be c8 73 33 be 96 60 2e 3f
       -0.28787088 -0.21347721 -0.17524636 0.6811613
000280 98 5f 5f 3e fd ac 72 3e 69 90 ea be fa ff bf 3e
       0.2181381 0.23698802 -0.458133 0.37499982
000290 d4 2d ba bc b3 f1 e0 be 9e f9 b1 3e 2b 0e 54 be
       -0.02272693 -0.43934402 0.34760755 -0.2070853
0002a0 82 5d b4 be bf b6 99 3c 64 88 a2 bd 08 39 54 be
       -0.3522759 0.018763898 -0.07936171 -0.2072488
0002b0 7a e7 e4 3e 60 22 2a bf 62 ea eb be b2 d8 3a bf
       0.44707853 -0.664587 -0.46077257 -0.729869
0002c0 c6 eb c1 be 99 16 ed be 0d c6 7f 3e b1 74 2a 3f
       -0.37875193 -0.46306303 0.24977894 0.66584307
0002d0 94 dd 8e 3e 7a 63 25 3f 80 6d 58 be f3 40 62 be
       0.27903426 0.64604914 -0.21135521 -0.22095089
0002e0 4b 21 b5 be d5 ed 73 bd 0c 9c d8 be 29 64 65 3e
       -0.35376963 -0.059552986 -0.42306554 0.2240149
0002f0 8c a7 af be 39 c9 dd be d1 cc c0 be 08 15 b6 3e
       -0.34307516 -0.43317583 -0.37656263 0.3556292
000300 e4 f6 0e bf ee 30 c1 be 06 33 97 3e 8a 02 80 bd
       -0.55845475 -0.37732643 0.29531115 -0.06250484
000310 49 66 04 be db 0e 52 be 8e 2a 76 3d d5 96 e4 be
       -0.12929644 -0.2051348 0.060099177 -0.44646326

arith.constant2 f4 [2]
000000 65 0c ea 3d 63 0c ea bd
       0.11428145 -0.11428144

arith.constant3 f4 [10]
000000 0c 9f 92 3e 3a 95 9e 3e ae 0e fc 3d 75 45 b3 3e
       0.28636968 0.30973226 0.123074874 0.3501393
000010 87 de 89 be b1 ce b1 3e 33 d4 8a 3e 75 f4 90 3e
       -0.26927587 0.34728006 0.2711502 0.28311506
000020 b8 55 8c bd c9 f4 15 be
       -0.06852287 -0.1464416

sequential_2_1/dense_6_1/Add/ReadVariableOp f4 [20]
000000 09 b5 9e be 68 60 36 3d af d6 16 3e 59 ea df be
       -0.30997494 0.044525534 0.14730333 -0.4373348
000010 d6 72 6c 3d 6a 1d c5 3d 93 91 b8 3d 68 1a 86 be
       0.057726704 0.09624751 0.09012141 -0.2619202
000020 1b 51 2a 3d f6 3a b5 be a8 bd 7b bd c2 35 a4 be
       0.041581254 -0.35396546 -0.061460167 -0.32072264
000030 34 80 ad be ff d5 9e 3d 1f 7f 21 3e 2c 31 3b 3e
       -0.33886874 0.0775566 0.15771149 0.18280476
000040 ec 66 02 3e 28 d7 62 3e 6c 5d a9 bc cf de 90 be
       0.12734574 0.22152388 -0.02067443 -0.2829499

sequential_2_1/dense_6_1/MatMul f4 [20, 42]
000000 20 a1 06 be 1c 21 82 be fd 45 ee 3e 58 9a e0 bd
       -0.13147402 -0.25415885 0.46537772 -0.10966939
000010 0c dd ef 3e 33 47 74 3e 18 bf 87 3e 9b 0a c3 bd
       0.46848333 0.23855285 0.2651298 -0.09523507
000020 52 26 ee 3e 50 14 1c be 00 f3 90 3e 5a 32 37 be
       0.4651361 -0.15242124 0.28310394 -0.17890301
000030 66 dc a9 3e 67 55 28 3d 63 d7 46 3e 8d cd f4 3d
       0.33175963 0.04109707 0.19418101 0.11953268
000040 78 e2 30 bd 94 f2 50 3e c3 ab ce 3e 08 95 c0 bd
       -0.043184727 0.20405036 0.4036542 -0.094034255
000050 47 98 9c bc 0e 4d c4 bd 2d e3 0b be 7a 44 77 3e
       -0.01911558 -0.095850095 -0.1366088 0.24147215
000060 79 9f b9 bc 79 fa 71 3e f6 30 12 be 63 7c 44 bd
       -0.02265905 0.23630704 -0.1427649 -0.047970187
000070 6c 0d 05 be 13 3e 1b be 14 29 38 be 54 8f 86 bc
       -0.12993401 -0.15160398 -0.1798442 -0.016425766
000080 c2 5c 3e be 29 56 12 3e 69 94 1c bf c7 9d 00 bd
       -0.18590072 0.1429068 -0.61163956 -0.03140047
000090 a8 7b 6b bd 4f ec 14 be f2 14 47 be fe e5 4a 3d
       -0.057490975 -0.1454327 -0.19441584 0.049535744
0000a0 f8 0b 5f be 19 d6 48 3e cb 77 89 be 10 af ab 3d
       -0.2178191 0.19612922 -0.26849207 0.08383
0000b0 5c 27 21 bf 2b b3 10 be cc 38 27 be 25 89 87 be
       -0.6295068 -0.14130847 -0.1633026 -0.2647182
0000c0 1f 9b d2 be ab 6c f5 3d 86 2d 51 bf 9e 1a bf be
       -0.41133973 0.119836174 -0.8171009 -0.37324995
0000d0 56 d3 cf be 81 71 d7 3a 3b a9 94 be ec 04 7c be
       -0.40590924 0.0016437025 -0.29035363 -0.24611253
0000e0 a6 69 75 be af 83 d9 3d 7f fa 64 bd 73 5f 0f be
       -0.23966083 0.1062082 -0.055902954 -0.14001255
0000f0 a0 9f 80 be 2f 24 a4 be 04 fb 8d be 83 f5 76 be
       -0.25121784 -0.32058856 -0.27730572 -0.24117093
000100 a5 e4 ba bd 1b 35 ba bc 4e ed 76 3b be 92 a9 3d
       -0.09125642 -0.0227304 0.0037678066 0.08279942
000110 56 f9 2c 3e 01 66 65 3d 77 96 bf 3e 0c 03 b5 bb
       0.16891989 0.05600548 0.37419483 -0.005524045
000120 6c 1b 30 be 6e fa 6b bd 14 fb c1 bc 16 b6 2e be
       -0.1719796 -0.057611875 -0.023679294 -0.17061648
000130 a5 8e 3a 3f 0c d9 d2 be 63 6a 56 3e 20 d8 56 be
       0.7287391 -0.4118122 0.20939021 -0.20980883
000140 99 e5 df 3e b2 c4 c5 bd 3d 52 0c 3f 4b b3 b3 3d
       0.43729857 -0.09656657 0.54812986 0.08774432
000150 aa ff 8f be c3 d0 1f be 43 5f a3 3d 1f 9e 31 3f
       -0.28124744 -0.1560698 0.07977154 0.693819
000160 b4 4f 4b 3d 85 76 a4 3e 19 a2 94 bd c3 9a ea 3d
       0.049636558 0.32121673 -0.0725748 0.114553
000170 0b 9b 1f be 8f e9 d0 3d 98 92 ff 3c 5e e5 c6 3d
       -0.15586488 0.10200798 0.031197831 0.09711717
000180 10 0e f0 3d 6e 4a 4b 3d e0 dc 11 bd 54 9a c6 bd
       0.11721432 0.04963153 -0.035611033 -0.096974045
000190 10 5b 64 3d 4c b5 51 bf bd 5e 80 bd f7 7d aa 3d
       0.055750906 -0.8191726 -0.0626807 0.08324807
0001a0 a3 30 02 3d 7a f9 85 3d eb 1d f1 bd bc 2f 97 bb
       0.031784665 0.065417245 -0.117732845 -0.0046138447
0001b0 b8 78 31 be ba 77 00 3e 2e dd 77 3e b3 09 dd 3d
       -0.17331207 0.12545672 0.24205467 0.107928656
0001c0 0c a0 8d 3d 44 f9 44 3d d0 7d a3 be 2f 8e 11 3d
       0.06915292 0.04808928 -0.31931925 0.035535987
0001d0 bf 73 43 be 83 43 15 3e 2d 86 69 3d 84 c0 09 3e
       -0.19087122 0.14576535 0.057012726 0.13452345
0001e0 94 ad 0f be 5e 08 9c 3c 8a f0 98 be a4 70 78 3d
       -0.14031059 0.019046959 -0.29871017 0.060654297
0001f0 96 48 3b bc 2d 90 24 be 50 62 d5 3d 00 6c fc bb
       -0.01143088 -0.16070624 0.10419142 -0.0077033043
000200 52 9c 61 be 96 54 4f be c3 f3 ae be 2b 99 c4 bc
       -0.22032288 -0.2024711 -0.3417035 -0.023998817
000210 bc 17 ed be b0 cc a5 be 6d 6b 6a bf 0a e0 3e bc
       -0.4630717 -0.32382727 -0.9157017 -0.011650095
000220 1d 47 01 bf 6f aa dd 3c 72 81 13 be 22 78 31 3e
       -0.50499135 0.027058808 -0.14404848 0.17330983
000230 b4 05 b0 be f3 39 46 3e 64 d6 d3 3b 69 70 df 3d
       -0.3437935 0.19358043 0.0064647663 0.109101124
000240 ea c3 ac 3d e3 ff 8f be 61 b7 b7 be e1 8d 16 be
       0.08435805 -0.28124914 -0.35882095 -0.1470256
000250 5c 18 f9 bd 47 74 ef 3b 9b 17 0e 3e a8 b7 84 3e
       -0.12162849 0.0073075625 0.13876192 0.2592137
000260 ae 1a 30 3e c8 1f 09 bd 56 ff 48 3e d9 69 44 be
       0.17197677 -0.033477575 0.19628653 -0.19181003
000270 73 cf 48 bd 67 41 94 bc 74 2a b9 3d e0 12 ea 3d
       -0.049025964 -0.018097593 0.090413004 0.11429381
000280 2c 07 ea 3e c7 c6 3d 3d 84 d2 b5 3e 4a b5 7d 3d
       0.45708597 0.046332147 0.35512173 0.06194047
000290 c5 96 ae 3e 17 82 63 3c 3b e1 41 3e d0 72 34 3e
       0.34099403 0.013885996 0.18933575 0.17621922
0002a0 78 1b f5 3d 2c ff 7c 3e f1 7e a0 3b 9d fc 23 3e
       0.1196813 0.24706715 0.004897945 0.16014333
0002b0 24 35 27 3c 39 ab 95 3e 56 30 25 bd 39 a2 64 3e
       0.010205541 0.29232195 -0.0403293 0.22327508
0002c0 22 3d 2a be 33 94 36 3e c5 36 24 bc 31 3b 24 3e
       -0.16624883 0.17829971 -0.010022824 0.16038205
0002d0 74 4b 2d 3c 41 44 2a 3d 36 96 18 3e 27 1e 32 be
       0.010577071 0.041569 0.14901051 -0.17394315
0002e0 ea 30 95 bc e5 84 c8 be ce 75 48 3e 15 cd 72 3e
       -0.0182118 -0.3916389 0.19576189 0.23711045
0002f0 b8 69 e6 bd 7e cb 1d 3e 96 86 1d be d9 03 e9 3d
       -0.11250633 0.15409657 -0.15383372 0.11377687
000300 ef 0e 88 3e 60 96 ba be 46 26 12 3d 73 2e 3a 3e
       0.26573893 -0.36442852 0.03568103 0.18181781
000310 24 67 aa bd 58 47 21 3e 2f 65 47 3e a1 4e 85 be
       -0.08320454 0.15749872 0.19472192 -0.26036552
000320 27 d5 76 be ad e1 20 bf 54 0b 2b bd 0d 0f 75 3e
       -0.24104749 -0.62844354 -0.04175885 0.23931523
000330 7e 69 3c 3d 1c f8 3a 3e ba 4c 0a 3d d5 e0 2b 3e
       0.045999043 0.18258709 0.03376458 0.16784985
000340 d6 76 9f bd 58 0d 5a 3e 98 cc e3 bd 98 81 74 3d
       -0.07786338 0.21294153 -0.111230075 0.059693903
000350 78 68 c5 3d 22 02 1a 3f cf 81 75 bc 90 34 bc 3e
       0.096390665 0.60159504 -0.014984562 0.36758852
000360 57 04 8b bd 03 9b 49 3e f2 63 1c be 3b 71 4e 3e
       -0.06787937 0.19688039 -0.15272501 0.20160381
000370 e5 d9 45 bd e2 fa 2a 3e 80 c3 14 bd 38 0a c2 3d
       -0.048303504 0.16697267 -0.036319256 0.09474605
000380 3b 3f 93 3d 2a c8 cf bd 81 a1 85 3c 14 65 80 be
       0.07189795 -0.101456 0.016312363 -0.25077116
000390 66 30 df bd 27 10 e1 3d 10 e3 69 bd 81 ab c2 3d
       -0.10897903 0.10989409 -0.05710131 0.09505368
0003a0 65 11 43 3e 55 ff 5f be c4 68 6a bd e4 df 11 bf
       0.19049604 -0.21874745 -0.05722882 -0.56982255
0003b0 b3 00 14 bd a5 dc 1e 3e 20 4c 04 be c2 1e 8a 3d
       -0.03613348 0.15513857 -0.12919664 0.06744148
0003c0 8a 52 2b be 99 54 31 3c 28 6f 76 3e 6c dd 88 3e
       -0.16730705 0.010823392 0.2406584 0.2673143
0003d0 f5 fc 8a bd 45 31 67 3e 4a ed 30 3d e4 74 1b 3e
       -0.06786529 0.22577389 0.043195046 0.15181309
0003e0 92 97 70 be 67 e7 01 be fc 22 9d bd 46 9e 2e be
       -0.2349532 -0.12685929 -0.07672688 -0.17052564
0003f0 3c 0f 17 3e 8a b5 5a be cf de cb be d5 fe bf be
       0.14751905 -0.21358314 -0.39818427 -0.3749911
